…
sync_bn: False
test_gpu: [0]
test_list: dataset/s3dis/list/val5.txt
test_list_full: dataset/s3dis/list/val5_full.txt
test_workers: 4
train_gpu: [4, 5, 6, 7]
use_xyz: True
voxel_max: 80000
voxel_size: 0.04
weight: None
weight_decay: 0.0001
workers: 1
world_size: 4
[2022-09-15 15:27:50,100 INFO train_PT-2.py line 206 1892023] => creating model ...
[2022-09-15 15:27:50,101 INFO train_PT-2.py line 207 1892023] Classes: 21
[2022-09-15 15:27:50,101 INFO train_PT-2.py line 208 1892023] PointTransformerSeg(
  (PT_model): PointTransformer_model(
    (enc1): Sequential(
      (0): TransitionDown(
        (linear): Linear(in_features=6, out_features=32, bias=False)
        (bn): BatchNorm1d(32, eps=1e-05, momentum=0.1, affine=True, track_running_stats=True)
        (relu): ReLU(inplace=True)
      )
      (1): PointTransformerBlock(
        (linear1): Linear(in_features=32, out_features=32, bias=False)
        (bn1): BatchNorm1d(32, eps=1e-05, momentum=0.1, affine=True, track_running_stats=True)
        (transformer2): PointTransformerLayer(
          (linear_q): Linear(in_features=32, out_features=32, bias=True)
          (linear_k): Linear(in_features=32, out_features=32, bias=True)
          (linear_v): Linear(in_features=32, out_features=32, bias=True)
          (linear_p): Sequential(
            (0): Linear(in_features=3, out_features=3, bias=True)
            (1): BatchNorm1d(3, eps=1e-05, momentum=0.1, affine=True, track_running_stats=True)
            (2): ReLU(inplace=True)
            (3): Linear(in_features=3, out_features=32, bias=True)
          )
          (linear_w): Sequential(
            (0): BatchNorm1d(32, eps=1e-05, momentum=0.1, affine=True, track_running_stats=True)
            (1): ReLU(inplace=True)
            (2): Linear(in_features=32, out_features=4, bias=True)
            (3): BatchNorm1d(4, eps=1e-05, momentum=0.1, affine=True, track_running_stats=True)
            (4): ReLU(inplace=True)
            (5): Linear(in_features=4, out_features=4, bias=True)
          )
          (softmax): Softmax(dim=1)
        )
        (bn2): BatchNorm1d(32, eps=1e-05, momentum=0.1, affine=True, track_running_stats=True)
        (linear3): Linear(in_features=32, out_features=32, bias=False)
        (bn3): BatchNorm1d(32, eps=1e-05, momentum=0.1, affine=True, track_running_stats=True)
        (relu): ReLU(inplace=True)
      )
    )
    (enc2): Sequential(
      (0): TransitionDown(
        (linear): Linear(in_features=35, out_features=64, bias=False)
        (pool): MaxPool1d(kernel_size=16, stride=16, padding=0, dilation=1, ceil_mode=False)
        (bn): BatchNorm1d(64, eps=1e-05, momentum=0.1, affine=True, track_running_stats=True)
        (relu): ReLU(inplace=True)
      )
      (1): PointTransformerBlock(
        (linear1): Linear(in_features=64, out_features=64, bias=False)
        (bn1): BatchNorm1d(64, eps=1e-05, momentum=0.1, affine=True, track_running_stats=True)
        (transformer2): PointTransformerLayer(
          (linear_q): Linear(in_features=64, out_features=64, bias=True)
          (linear_k): Linear(in_features=64, out_features=64, bias=True)
          (linear_v): Linear(in_features=64, out_features=64, bias=True)
          (linear_p): Sequential(
            (0): Linear(in_features=3, out_features=3, bias=True)
            (1): BatchNorm1d(3, eps=1e-05, momentum=0.1, affine=True, track_running_stats=True)
            (2): ReLU(inplace=True)
            (3): Linear(in_features=3, out_features=64, bias=True)
          )
          (linear_w): Sequential(
            (0): BatchNorm1d(64, eps=1e-05, momentum=0.1, affine=True, track_running_stats=True)
            (1): ReLU(inplace=True)
            (2): Linear(in_features=64, out_features=8, bias=True)
            (3): BatchNorm1d(8, eps=1e-05, momentum=0.1, affine=True, track_running_stats=True)
            (4): ReLU(inplace=True)
            (5): Linear(in_features=8, out_features=8, bias=True)
          )
          (softmax): Softmax(dim=1)
        )
        (bn2): BatchNorm1d(64, eps=1e-05, momentum=0.1, affine=True, track_running_stats=True)
        (linear3): Linear(in_features=64, out_features=64, bias=False)
        (bn3): BatchNorm1d(64, eps=1e-05, momentum=0.1, affine=True, track_running_stats=True)
        (relu): ReLU(inplace=True)
      )
      (2): PointTransformerBlock(
        (linear1): Linear(in_features=64, out_features=64, bias=False)
        (bn1): BatchNorm1d(64, eps=1e-05, momentum=0.1, affine=True, track_running_stats=True)
        (transformer2): PointTransformerLayer(
          (linear_q): Linear(in_features=64, out_features=64, bias=True)
          (linear_k): Linear(in_features=64, out_features=64, bias=True)
          (linear_v): Linear(in_features=64, out_features=64, bias=True)
          (linear_p): Sequential(
            (0): Linear(in_features=3, out_features=3, bias=True)
            (1): BatchNorm1d(3, eps=1e-05, momentum=0.1, affine=True, track_running_stats=True)
            (2): ReLU(inplace=True)
            (3): Linear(in_features=3, out_features=64, bias=True)
          )
          (linear_w): Sequential(
            (0): BatchNorm1d(64, eps=1e-05, momentum=0.1, affine=True, track_running_stats=True)
            (1): ReLU(inplace=True)
            (2): Linear(in_features=64, out_features=8, bias=True)
            (3): BatchNorm1d(8, eps=1e-05, momentum=0.1, affine=True, track_running_stats=True)
            (4): ReLU(inplace=True)
            (5): Linear(in_features=8, out_features=8, bias=True)
          )
          (softmax): Softmax(dim=1)
        )
        (bn2): BatchNorm1d(64, eps=1e-05, momentum=0.1, affine=True, track_running_stats=True)
        (linear3): Linear(in_features=64, out_features=64, bias=False)
        (bn3): BatchNorm1d(64, eps=1e-05, momentum=0.1, affine=True, track_running_stats=True)
        (relu): ReLU(inplace=True)
      )
    )
    (enc3): Sequential(
      (0): TransitionDown(
        (linear): Linear(in_features=67, out_features=128, bias=False)
        (pool): MaxPool1d(kernel_size=16, stride=16, padding=0, dilation=1, ceil_mode=False)
        (bn): BatchNorm1d(128, eps=1e-05, momentum=0.1, affine=True, track_running_stats=True)
        (relu): ReLU(inplace=True)
      )
      (1): PointTransformerBlock(
        (linear1): Linear(in_features=128, out_features=128, bias=False)
        (bn1): BatchNorm1d(128, eps=1e-05, momentum=0.1, affine=True, track_running_stats=True)
        (transformer2): PointTransformerLayer(
          (linear_q): Linear(in_features=128, out_features=128, bias=True)
          (linear_k): Linear(in_features=128, out_features=128, bias=True)
          (linear_v): Linear(in_features=128, out_features=128, bias=True)
          (linear_p): Sequential(
            (0): Linear(in_features=3, out_features=3, bias=True)
            (1): BatchNorm1d(3, eps=1e-05, momentum=0.1, affine=True, track_running_stats=True)
            (2): ReLU(inplace=True)
            (3): Linear(in_features=3, out_features=128, bias=True)
          )
          (linear_w): Sequential(
            (0): BatchNorm1d(128, eps=1e-05, momentum=0.1, affine=True, track_running_stats=True)
            (1): ReLU(inplace=True)
            (2): Linear(in_features=128, out_features=16, bias=True)
            (3): BatchNorm1d(16, eps=1e-05, momentum=0.1, affine=True, track_running_stats=True)
            (4): ReLU(inplace=True)
            (5): Linear(in_features=16, out_features=16, bias=True)
          )
          (softmax): Softmax(dim=1)
        )
        (bn2): BatchNorm1d(128, eps=1e-05, momentum=0.1, affine=True, track_running_stats=True)
        (linear3): Linear(in_features=128, out_features=128, bias=False)
        (bn3): BatchNorm1d(128, eps=1e-05, momentum=0.1, affine=True, track_running_stats=True)
        (relu): ReLU(inplace=True)
      )
      (2): PointTransformerBlock(
        (linear1): Linear(in_features=128, out_features=128, bias=False)
        (bn1): BatchNorm1d(128, eps=1e-05, momentum=0.1, affine=True, track_running_stats=True)
        (transformer2): PointTransformerLayer(
          (linear_q): Linear(in_features=128, out_features=128, bias=True)
          (linear_k): Linear(in_features=128, out_features=128, bias=True)
          (linear_v): Linear(in_features=128, out_features=128, bias=True)
          (linear_p): Sequential(
            (0): Linear(in_features=3, out_features=3, bias=True)
            (1): BatchNorm1d(3, eps=1e-05, momentum=0.1, affine=True, track_running_stats=True)
            (2): ReLU(inplace=True)
            (3): Linear(in_features=3, out_features=128, bias=True)
          )
          (linear_w): Sequential(
            (0): BatchNorm1d(128, eps=1e-05, momentum=0.1, affine=True, track_running_stats=True)
            (1): ReLU(inplace=True)
            (2): Linear(in_features=128, out_features=16, bias=True)
            (3): BatchNorm1d(16, eps=1e-05, momentum=0.1, affine=True, track_running_stats=True)
            (4): ReLU(inplace=True)
            (5): Linear(in_features=16, out_features=16, bias=True)
          )
          (softmax): Softmax(dim=1)
        )
        (bn2): BatchNorm1d(128, eps=1e-05, momentum=0.1, affine=True, track_running_stats=True)
        (linear3): Linear(in_features=128, out_features=128, bias=False)
        (bn3): BatchNorm1d(128, eps=1e-05, momentum=0.1, affine=True, track_running_stats=True)
        (relu): ReLU(inplace=True)
      )
      (3): PointTransformerBlock(
        (linear1): Linear(in_features=128, out_features=128, bias=False)
        (bn1): BatchNorm1d(128, eps=1e-05, momentum=0.1, affine=True, track_running_stats=True)
        (transformer2): PointTransformerLayer(
          (linear_q): Linear(in_features=128, out_features=128, bias=True)
          (linear_k): Linear(in_features=128, out_features=128, bias=True)
          (linear_v): Linear(in_features=128, out_features=128, bias=True)
          (linear_p): Sequential(
            (0): Linear(in_features=3, out_features=3, bias=True)
            (1): BatchNorm1d(3, eps=1e-05, momentum=0.1, affine=True, track_running_stats=True)
            (2): ReLU(inplace=True)
            (3): Linear(in_features=3, out_features=128, bias=True)
          )
          (linear_w): Sequential(
            (0): BatchNorm1d(128, eps=1e-05, momentum=0.1, affine=True, track_running_stats=True)
            (1): ReLU(inplace=True)
            (2): Linear(in_features=128, out_features=16, bias=True)
            (3): BatchNorm1d(16, eps=1e-05, momentum=0.1, affine=True, track_running_stats=True)
            (4): ReLU(inplace=True)
            (5): Linear(in_features=16, out_features=16, bias=True)
          )
          (softmax): Softmax(dim=1)
        )
        (bn2): BatchNorm1d(128, eps=1e-05, momentum=0.1, affine=True, track_running_stats=True)
        (linear3): Linear(in_features=128, out_features=128, bias=False)
        (bn3): BatchNorm1d(128, eps=1e-05, momentum=0.1, affine=True, track_running_stats=True)
        (relu): ReLU(inplace=True)
      )
    )
    (enc4): Sequential(
      (0): TransitionDown(
        (linear): Linear(in_features=131, out_features=256, bias=False)
        (pool): MaxPool1d(kernel_size=16, stride=16, padding=0, dilation=1, ceil_mode=False)
        (bn): BatchNorm1d(256, eps=1e-05, momentum=0.1, affine=True, track_running_stats=True)
        (relu): ReLU(inplace=True)
      )
      (1): PointTransformerBlock(
        (linear1): Linear(in_features=256, out_features=256, bias=False)
        (bn1): BatchNorm1d(256, eps=1e-05, momentum=0.1, affine=True, track_running_stats=True)
        (transformer2): PointTransformerLayer(
          (linear_q): Linear(in_features=256, out_features=256, bias=True)
          (linear_k): Linear(in_features=256, out_features=256, bias=True)
          (linear_v): Linear(in_features=256, out_features=256, bias=True)
          (linear_p): Sequential(
            (0): Linear(in_features=3, out_features=3, bias=True)
            (1): BatchNorm1d(3, eps=1e-05, momentum=0.1, affine=True, track_running_stats=True)
            (2): ReLU(inplace=True)
            (3): Linear(in_features=3, out_features=256, bias=True)
          )
          (linear_w): Sequential(
            (0): BatchNorm1d(256, eps=1e-05, momentum=0.1, affine=True, track_running_stats=True)
            (1): ReLU(inplace=True)
            (2): Linear(in_features=256, out_features=32, bias=True)
            (3): BatchNorm1d(32, eps=1e-05, momentum=0.1, affine=True, track_running_stats=True)
            (4): ReLU(inplace=True)
            (5): Linear(in_features=32, out_features=32, bias=True)
          )
          (softmax): Softmax(dim=1)
        )
        (bn2): BatchNorm1d(256, eps=1e-05, momentum=0.1, affine=True, track_running_stats=True)
        (linear3): Linear(in_features=256, out_features=256, bias=False)
        (bn3): BatchNorm1d(256, eps=1e-05, momentum=0.1, affine=True, track_running_stats=True)
        (relu): ReLU(inplace=True)
      )
      (2): PointTransformerBlock(
        (linear1): Linear(in_features=256, out_features=256, bias=False)
        (bn1): BatchNorm1d(256, eps=1e-05, momentum=0.1, affine=True, track_running_stats=True)
        (transformer2): PointTransformerLayer(
          (linear_q): Linear(in_features=256, out_features=256, bias=True)
          (linear_k): Linear(in_features=256, out_features=256, bias=True)
          (linear_v): Linear(in_features=256, out_features=256, bias=True)
          (linear_p): Sequential(
            (0): Linear(in_features=3, out_features=3, bias=True)
            (1): BatchNorm1d(3, eps=1e-05, momentum=0.1, affine=True, track_running_stats=True)
            (2): ReLU(inplace=True)
            (3): Linear(in_features=3, out_features=256, bias=True)
          )
          (linear_w): Sequential(
            (0): BatchNorm1d(256, eps=1e-05, momentum=0.1, affine=True, track_running_stats=True)
            (1): ReLU(inplace=True)
            (2): Linear(in_features=256, out_features=32, bias=True)
            (3): BatchNorm1d(32, eps=1e-05, momentum=0.1, affine=True, track_running_stats=True)
            (4): ReLU(inplace=True)
            (5): Linear(in_features=32, out_features=32, bias=True)
          )
          (softmax): Softmax(dim=1)
        )
        (bn2): BatchNorm1d(256, eps=1e-05, momentum=0.1, affine=True, track_running_stats=True)
        (linear3): Linear(in_features=256, out_features=256, bias=False)
        (bn3): BatchNorm1d(256, eps=1e-05, momentum=0.1, affine=True, track_running_stats=True)
        (relu): ReLU(inplace=True)
      )
      (3): PointTransformerBlock(
        (linear1): Linear(in_features=256, out_features=256, bias=False)
        (bn1): BatchNorm1d(256, eps=1e-05, momentum=0.1, affine=True, track_running_stats=True)
        (transformer2): PointTransformerLayer(
          (linear_q): Linear(in_features=256, out_features=256, bias=True)
          (linear_k): Linear(in_features=256, out_features=256, bias=True)
          (linear_v): Linear(in_features=256, out_features=256, bias=True)
          (linear_p): Sequential(
            (0): Linear(in_features=3, out_features=3, bias=True)
            (1): BatchNorm1d(3, eps=1e-05, momentum=0.1, affine=True, track_running_stats=True)
            (2): ReLU(inplace=True)
            (3): Linear(in_features=3, out_features=256, bias=True)
          )
          (linear_w): Sequential(
            (0): BatchNorm1d(256, eps=1e-05, momentum=0.1, affine=True, track_running_stats=True)
            (1): ReLU(inplace=True)
            (2): Linear(in_features=256, out_features=32, bias=True)
            (3): BatchNorm1d(32, eps=1e-05, momentum=0.1, affine=True, track_running_stats=True)
            (4): ReLU(inplace=True)
            (5): Linear(in_features=32, out_features=32, bias=True)
          )
          (softmax): Softmax(dim=1)
        )
        (bn2): BatchNorm1d(256, eps=1e-05, momentum=0.1, affine=True, track_running_stats=True)
        (linear3): Linear(in_features=256, out_features=256, bias=False)
        (bn3): BatchNorm1d(256, eps=1e-05, momentum=0.1, affine=True, track_running_stats=True)
        (relu): ReLU(inplace=True)
      )
      (4): PointTransformerBlock(
        (linear1): Linear(in_features=256, out_features=256, bias=False)
        (bn1): BatchNorm1d(256, eps=1e-05, momentum=0.1, affine=True, track_running_stats=True)
        (transformer2): PointTransformerLayer(
          (linear_q): Linear(in_features=256, out_features=256, bias=True)
          (linear_k): Linear(in_features=256, out_features=256, bias=True)
          (linear_v): Linear(in_features=256, out_features=256, bias=True)
          (linear_p): Sequential(
            (0): Linear(in_features=3, out_features=3, bias=True)
            (1): BatchNorm1d(3, eps=1e-05, momentum=0.1, affine=True, track_running_stats=True)
            (2): ReLU(inplace=True)
            (3): Linear(in_features=3, out_features=256, bias=True)
          )
          (linear_w): Sequential(
            (0): BatchNorm1d(256, eps=1e-05, momentum=0.1, affine=True, track_running_stats=True)
            (1): ReLU(inplace=True)
            (2): Linear(in_features=256, out_features=32, bias=True)
            (3): BatchNorm1d(32, eps=1e-05, momentum=0.1, affine=True, track_running_stats=True)
            (4): ReLU(inplace=True)
            (5): Linear(in_features=32, out_features=32, bias=True)
          )
          (softmax): Softmax(dim=1)
        )
        (bn2): BatchNorm1d(256, eps=1e-05, momentum=0.1, affine=True, track_running_stats=True)
        (linear3): Linear(in_features=256, out_features=256, bias=False)
        (bn3): BatchNorm1d(256, eps=1e-05, momentum=0.1, affine=True, track_running_stats=True)
        (relu): ReLU(inplace=True)
      )
      (5): PointTransformerBlock(
        (linear1): Linear(in_features=256, out_features=256, bias=False)
        (bn1): BatchNorm1d(256, eps=1e-05, momentum=0.1, affine=True, track_running_stats=True)
        (transformer2): PointTransformerLayer(
          (linear_q): Linear(in_features=256, out_features=256, bias=True)
          (linear_k): Linear(in_features=256, out_features=256, bias=True)
          (linear_v): Linear(in_features=256, out_features=256, bias=True)
          (linear_p): Sequential(
            (0): Linear(in_features=3, out_features=3, bias=True)
            (1): BatchNorm1d(3, eps=1e-05, momentum=0.1, affine=True, track_running_stats=True)
            (2): ReLU(inplace=True)
            (3): Linear(in_features=3, out_features=256, bias=True)
          )
          (linear_w): Sequential(
            (0): BatchNorm1d(256, eps=1e-05, momentum=0.1, affine=True, track_running_stats=True)
            (1): ReLU(inplace=True)
            (2): Linear(in_features=256, out_features=32, bias=True)
            (3): BatchNorm1d(32, eps=1e-05, momentum=0.1, affine=True, track_running_stats=True)
            (4): ReLU(inplace=True)
            (5): Linear(in_features=32, out_features=32, bias=True)
          )
          (softmax): Softmax(dim=1)
        )
        (bn2): BatchNorm1d(256, eps=1e-05, momentum=0.1, affine=True, track_running_stats=True)
        (linear3): Linear(in_features=256, out_features=256, bias=False)
        (bn3): BatchNorm1d(256, eps=1e-05, momentum=0.1, affine=True, track_running_stats=True)
        (relu): ReLU(inplace=True)
      )
    )
    (enc5): Sequential(
      (0): TransitionDown(
        (linear): Linear(in_features=259, out_features=512, bias=False)
        (pool): MaxPool1d(kernel_size=16, stride=16, padding=0, dilation=1, ceil_mode=False)
        (bn): BatchNorm1d(512, eps=1e-05, momentum=0.1, affine=True, track_running_stats=True)
        (relu): ReLU(inplace=True)
      )
      (1): PointTransformerBlock(
        (linear1): Linear(in_features=512, out_features=512, bias=False)
        (bn1): BatchNorm1d(512, eps=1e-05, momentum=0.1, affine=True, track_running_stats=True)
        (transformer2): PointTransformerLayer(
          (linear_q): Linear(in_features=512, out_features=512, bias=True)
          (linear_k): Linear(in_features=512, out_features=512, bias=True)
          (linear_v): Linear(in_features=512, out_features=512, bias=True)
          (linear_p): Sequential(
            (0): Linear(in_features=3, out_features=3, bias=True)
            (1): BatchNorm1d(3, eps=1e-05, momentum=0.1, affine=True, track_running_stats=True)
            (2): ReLU(inplace=True)
            (3): Linear(in_features=3, out_features=512, bias=True)
          )
          (linear_w): Sequential(
            (0): BatchNorm1d(512, eps=1e-05, momentum=0.1, affine=True, track_running_stats=True)
            (1): ReLU(inplace=True)
            (2): Linear(in_features=512, out_features=64, bias=True)
            (3): BatchNorm1d(64, eps=1e-05, momentum=0.1, affine=True, track_running_stats=True)
            (4): ReLU(inplace=True)
            (5): Linear(in_features=64, out_features=64, bias=True)
          )
          (softmax): Softmax(dim=1)
        )
        (bn2): BatchNorm1d(512, eps=1e-05, momentum=0.1, affine=True, track_running_stats=True)
        (linear3): Linear(in_features=512, out_features=512, bias=False)
        (bn3): BatchNorm1d(512, eps=1e-05, momentum=0.1, affine=True, track_running_stats=True)
        (relu): ReLU(inplace=True)
      )
      (2): PointTransformerBlock(
        (linear1): Linear(in_features=512, out_features=512, bias=False)
        (bn1): BatchNorm1d(512, eps=1e-05, momentum=0.1, affine=True, track_running_stats=True)
        (transformer2): PointTransformerLayer(
          (linear_q): Linear(in_features=512, out_features=512, bias=True)
          (linear_k): Linear(in_features=512, out_features=512, bias=True)
          (linear_v): Linear(in_features=512, out_features=512, bias=True)
          (linear_p): Sequential(
            (0): Linear(in_features=3, out_features=3, bias=True)
            (1): BatchNorm1d(3, eps=1e-05, momentum=0.1, affine=True, track_running_stats=True)
            (2): ReLU(inplace=True)
            (3): Linear(in_features=3, out_features=512, bias=True)
          )
          (linear_w): Sequential(
            (0): BatchNorm1d(512, eps=1e-05, momentum=0.1, affine=True, track_running_stats=True)
            (1): ReLU(inplace=True)
            (2): Linear(in_features=512, out_features=64, bias=True)
            (3): BatchNorm1d(64, eps=1e-05, momentum=0.1, affine=True, track_running_stats=True)
            (4): ReLU(inplace=True)
            (5): Linear(in_features=64, out_features=64, bias=True)
          )
          (softmax): Softmax(dim=1)
        )
        (bn2): BatchNorm1d(512, eps=1e-05, momentum=0.1, affine=True, track_running_stats=True)
        (linear3): Linear(in_features=512, out_features=512, bias=False)
        (bn3): BatchNorm1d(512, eps=1e-05, momentum=0.1, affine=True, track_running_stats=True)
        (relu): ReLU(inplace=True)
      )
    )
    (dec5): Sequential(
      (0): TransitionUp(
        (linear1): Sequential(
          (0): Linear(in_features=1024, out_features=512, bias=True)
          (1): BatchNorm1d(512, eps=1e-05, momentum=0.1, affine=True, track_running_stats=True)
          (2): ReLU(inplace=True)
        )
        (linear2): Sequential(
          (0): Linear(in_features=512, out_features=512, bias=True)
          (1): ReLU(inplace=True)
        )
      )
      (1): PointTransformerBlock(
        (linear1): Linear(in_features=512, out_features=512, bias=False)
        (bn1): BatchNorm1d(512, eps=1e-05, momentum=0.1, affine=True, track_running_stats=True)
        (transformer2): PointTransformerLayer(
          (linear_q): Linear(in_features=512, out_features=512, bias=True)
          (linear_k): Linear(in_features=512, out_features=512, bias=True)
          (linear_v): Linear(in_features=512, out_features=512, bias=True)
          (linear_p): Sequential(
            (0): Linear(in_features=3, out_features=3, bias=True)
            (1): BatchNorm1d(3, eps=1e-05, momentum=0.1, affine=True, track_running_stats=True)
            (2): ReLU(inplace=True)
            (3): Linear(in_features=3, out_features=512, bias=True)
          )
          (linear_w): Sequential(
            (0): BatchNorm1d(512, eps=1e-05, momentum=0.1, affine=True, track_running_stats=True)
            (1): ReLU(inplace=True)
            (2): Linear(in_features=512, out_features=64, bias=True)
            (3): BatchNorm1d(64, eps=1e-05, momentum=0.1, affine=True, track_running_stats=True)
            (4): ReLU(inplace=True)
            (5): Linear(in_features=64, out_features=64, bias=True)
          )
          (softmax): Softmax(dim=1)
        )
        (bn2): BatchNorm1d(512, eps=1e-05, momentum=0.1, affine=True, track_running_stats=True)
        (linear3): Linear(in_features=512, out_features=512, bias=False)
        (bn3): BatchNorm1d(512, eps=1e-05, momentum=0.1, affine=True, track_running_stats=True)
        (relu): ReLU(inplace=True)
      )
    )
    (dec4): Sequential(
      (0): TransitionUp(
        (linear1): Sequential(
          (0): Linear(in_features=256, out_features=256, bias=True)
          (1): BatchNorm1d(256, eps=1e-05, momentum=0.1, affine=True, track_running_stats=True)
          (2): ReLU(inplace=True)
        )
        (linear2): Sequential(
          (0): Linear(in_features=512, out_features=256, bias=True)
          (1): BatchNorm1d(256, eps=1e-05, momentum=0.1, affine=True, track_running_stats=True)
          (2): ReLU(inplace=True)
        )
      )
      (1): PointTransformerBlock(
        (linear1): Linear(in_features=256, out_features=256, bias=False)
        (bn1): BatchNorm1d(256, eps=1e-05, momentum=0.1, affine=True, track_running_stats=True)
        (transformer2): PointTransformerLayer(
          (linear_q): Linear(in_features=256, out_features=256, bias=True)
          (linear_k): Linear(in_features=256, out_features=256, bias=True)
          (linear_v): Linear(in_features=256, out_features=256, bias=True)
          (linear_p): Sequential(
            (0): Linear(in_features=3, out_features=3, bias=True)
            (1): BatchNorm1d(3, eps=1e-05, momentum=0.1, affine=True, track_running_stats=True)
            (2): ReLU(inplace=True)
            (3): Linear(in_features=3, out_features=256, bias=True)
          )
          (linear_w): Sequential(
            (0): BatchNorm1d(256, eps=1e-05, momentum=0.1, affine=True, track_running_stats=True)
            (1): ReLU(inplace=True)
            (2): Linear(in_features=256, out_features=32, bias=True)
            (3): BatchNorm1d(32, eps=1e-05, momentum=0.1, affine=True, track_running_stats=True)
            (4): ReLU(inplace=True)
            (5): Linear(in_features=32, out_features=32, bias=True)
          )
          (softmax): Softmax(dim=1)
        )
        (bn2): BatchNorm1d(256, eps=1e-05, momentum=0.1, affine=True, track_running_stats=True)
        (linear3): Linear(in_features=256, out_features=256, bias=False)
        (bn3): BatchNorm1d(256, eps=1e-05, momentum=0.1, affine=True, track_running_stats=True)
        (relu): ReLU(inplace=True)
      )
    )
    (dec3): Sequential(
      (0): TransitionUp(
        (linear1): Sequential(
          (0): Linear(in_features=128, out_features=128, bias=True)
          (1): BatchNorm1d(128, eps=1e-05, momentum=0.1, affine=True, track_running_stats=True)
          (2): ReLU(inplace=True)
        )
        (linear2): Sequential(
          (0): Linear(in_features=256, out_features=128, bias=True)
          (1): BatchNorm1d(128, eps=1e-05, momentum=0.1, affine=True, track_running_stats=True)
          (2): ReLU(inplace=True)
        )
      )
      (1): PointTransformerBlock(
        (linear1): Linear(in_features=128, out_features=128, bias=False)
        (bn1): BatchNorm1d(128, eps=1e-05, momentum=0.1, affine=True, track_running_stats=True)
        (transformer2): PointTransformerLayer(
          (linear_q): Linear(in_features=128, out_features=128, bias=True)
          (linear_k): Linear(in_features=128, out_features=128, bias=True)
          (linear_v): Linear(in_features=128, out_features=128, bias=True)
          (linear_p): Sequential(
            (0): Linear(in_features=3, out_features=3, bias=True)
            (1): BatchNorm1d(3, eps=1e-05, momentum=0.1, affine=True, track_running_stats=True)
            (2): ReLU(inplace=True)
            (3): Linear(in_features=3, out_features=128, bias=True)
          )
          (linear_w): Sequential(
            (0): BatchNorm1d(128, eps=1e-05, momentum=0.1, affine=True, track_running_stats=True)
            (1): ReLU(inplace=True)
            (2): Linear(in_features=128, out_features=16, bias=True)
            (3): BatchNorm1d(16, eps=1e-05, momentum=0.1, affine=True, track_running_stats=True)
            (4): ReLU(inplace=True)
            (5): Linear(in_features=16, out_features=16, bias=True)
          )
          (softmax): Softmax(dim=1)
        )
        (bn2): BatchNorm1d(128, eps=1e-05, momentum=0.1, affine=True, track_running_stats=True)
        (linear3): Linear(in_features=128, out_features=128, bias=False)
        (bn3): BatchNorm1d(128, eps=1e-05, momentum=0.1, affine=True, track_running_stats=True)
        (relu): ReLU(inplace=True)
      )
    )
    (dec2): Sequential(
      (0): TransitionUp(
        (linear1): Sequential(
          (0): Linear(in_features=64, out_features=64, bias=True)
          (1): BatchNorm1d(64, eps=1e-05, momentum=0.1, affine=True, track_running_stats=True)
          (2): ReLU(inplace=True)
        )
        (linear2): Sequential(
          (0): Linear(in_features=128, out_features=64, bias=True)
          (1): BatchNorm1d(64, eps=1e-05, momentum=0.1, affine=True, track_running_stats=True)
          (2): ReLU(inplace=True)
        )
      )
      (1): PointTransformerBlock(
        (linear1): Linear(in_features=64, out_features=64, bias=False)
        (bn1): BatchNorm1d(64, eps=1e-05, momentum=0.1, affine=True, track_running_stats=True)
        (transformer2): PointTransformerLayer(
          (linear_q): Linear(in_features=64, out_features=64, bias=True)
          (linear_k): Linear(in_features=64, out_features=64, bias=True)
          (linear_v): Linear(in_features=64, out_features=64, bias=True)
          (linear_p): Sequential(
            (0): Linear(in_features=3, out_features=3, bias=True)
            (1): BatchNorm1d(3, eps=1e-05, momentum=0.1, affine=True, track_running_stats=True)
            (2): ReLU(inplace=True)
            (3): Linear(in_features=3, out_features=64, bias=True)
          )
          (linear_w): Sequential(
            (0): BatchNorm1d(64, eps=1e-05, momentum=0.1, affine=True, track_running_stats=True)
            (1): ReLU(inplace=True)
            (2): Linear(in_features=64, out_features=8, bias=True)
            (3): BatchNorm1d(8, eps=1e-05, momentum=0.1, affine=True, track_running_stats=True)
            (4): ReLU(inplace=True)
            (5): Linear(in_features=8, out_features=8, bias=True)
          )
          (softmax): Softmax(dim=1)
        )
        (bn2): BatchNorm1d(64, eps=1e-05, momentum=0.1, affine=True, track_running_stats=True)
        (linear3): Linear(in_features=64, out_features=64, bias=False)
        (bn3): BatchNorm1d(64, eps=1e-05, momentum=0.1, affine=True, track_running_stats=True)
        (relu): ReLU(inplace=True)
      )
    )
    (dec1): Sequential(
      (0): TransitionUp(
        (linear1): Sequential(
          (0): Linear(in_features=32, out_features=32, bias=True)
          (1): BatchNorm1d(32, eps=1e-05, momentum=0.1, affine=True, track_running_stats=True)
          (2): ReLU(inplace=True)
        )
        (linear2): Sequential(
          (0): Linear(in_features=64, out_features=32, bias=True)
          (1): BatchNorm1d(32, eps=1e-05, momentum=0.1, affine=True, track_running_stats=True)
          (2): ReLU(inplace=True)
        )
      )
      (1): PointTransformerBlock(
        (linear1): Linear(in_features=32, out_features=32, bias=False)
        (bn1): BatchNorm1d(32, eps=1e-05, momentum=0.1, affine=True, track_running_stats=True)
        (transformer2): PointTransformerLayer(
          (linear_q): Linear(in_features=32, out_features=32, bias=True)
          (linear_k): Linear(in_features=32, out_features=32, bias=True)
          (linear_v): Linear(in_features=32, out_features=32, bias=True)
          (linear_p): Sequential(
            (0): Linear(in_features=3, out_features=3, bias=True)
            (1): BatchNorm1d(3, eps=1e-05, momentum=0.1, affine=True, track_running_stats=True)
            (2): ReLU(inplace=True)
            (3): Linear(in_features=3, out_features=32, bias=True)
          )
          (linear_w): Sequential(
            (0): BatchNorm1d(32, eps=1e-05, momentum=0.1, affine=True, track_running_stats=True)
            (1): ReLU(inplace=True)
            (2): Linear(in_features=32, out_features=4, bias=True)
            (3): BatchNorm1d(4, eps=1e-05, momentum=0.1, affine=True, track_running_stats=True)
            (4): ReLU(inplace=True)
            (5): Linear(in_features=4, out_features=4, bias=True)
          )
          (softmax): Softmax(dim=1)
        )
        (bn2): BatchNorm1d(32, eps=1e-05, momentum=0.1, affine=True, track_running_stats=True)
        (linear3): Linear(in_features=32, out_features=32, bias=False)
        (bn3): BatchNorm1d(32, eps=1e-05, momentum=0.1, affine=True, track_running_stats=True)
        (relu): ReLU(inplace=True)
      )
    )
  )
  (foldingnet1): Fold(
    (folding1): Sequential(
      (0): Conv1d(37, 256, kernel_size=(1,), stride=(1,))
      (1): BatchNorm1d(256, eps=1e-05, momentum=0.1, affine=True, track_running_stats=True)
      (2): ReLU(inplace=True)
      (3): Conv1d(256, 128, kernel_size=(1,), stride=(1,))
      (4): BatchNorm1d(128, eps=1e-05, momentum=0.1, affine=True, track_running_stats=True)
      (5): ReLU(inplace=True)
      (6): Conv1d(128, 3, kernel_size=(1,), stride=(1,))
    )
    (folding2): Sequential(
      (0): Conv1d(38, 256, kernel_size=(1,), stride=(1,))
      (1): BatchNorm1d(256, eps=1e-05, momentum=0.1, affine=True, track_running_stats=True)
      (2): ReLU(inplace=True)
      (3): Conv1d(256, 128, kernel_size=(1,), stride=(1,))
      (4): BatchNorm1d(128, eps=1e-05, momentum=0.1, affine=True, track_running_stats=True)
      (5): ReLU(inplace=True)
      (6): Conv1d(128, 3, kernel_size=(1,), stride=(1,))
    )
  )
  (foldingnet2): Fold(
    (folding1): Sequential(
      (0): Conv1d(69, 256, kernel_size=(1,), stride=(1,))
      (1): BatchNorm1d(256, eps=1e-05, momentum=0.1, affine=True, track_running_stats=True)
      (2): ReLU(inplace=True)
      (3): Conv1d(256, 128, kernel_size=(1,), stride=(1,))
      (4): BatchNorm1d(128, eps=1e-05, momentum=0.1, affine=True, track_running_stats=True)
      (5): ReLU(inplace=True)
      (6): Conv1d(128, 3, kernel_size=(1,), stride=(1,))
    )
    (folding2): Sequential(
      (0): Conv1d(70, 256, kernel_size=(1,), stride=(1,))
      (1): BatchNorm1d(256, eps=1e-05, momentum=0.1, affine=True, track_running_stats=True)
      (2): ReLU(inplace=True)
      (3): Conv1d(256, 128, kernel_size=(1,), stride=(1,))
      (4): BatchNorm1d(128, eps=1e-05, momentum=0.1, affine=True, track_running_stats=True)
      (5): ReLU(inplace=True)
      (6): Conv1d(128, 3, kernel_size=(1,), stride=(1,))
    )
  )
  (foldingnet3): Fold(
    (folding1): Sequential(
      (0): Conv1d(133, 256, kernel_size=(1,), stride=(1,))
      (1): BatchNorm1d(256, eps=1e-05, momentum=0.1, affine=True, track_running_stats=True)
      (2): ReLU(inplace=True)
      (3): Conv1d(256, 128, kernel_size=(1,), stride=(1,))
      (4): BatchNorm1d(128, eps=1e-05, momentum=0.1, affine=True, track_running_stats=True)
      (5): ReLU(inplace=True)
      (6): Conv1d(128, 3, kernel_size=(1,), stride=(1,))
    )
    (folding2): Sequential(
      (0): Conv1d(134, 256, kernel_size=(1,), stride=(1,))
      (1): BatchNorm1d(256, eps=1e-05, momentum=0.1, affine=True, track_running_stats=True)
      (2): ReLU(inplace=True)
      (3): Conv1d(256, 128, kernel_size=(1,), stride=(1,))
      (4): BatchNorm1d(128, eps=1e-05, momentum=0.1, affine=True, track_running_stats=True)
      (5): ReLU(inplace=True)
      (6): Conv1d(128, 3, kernel_size=(1,), stride=(1,))
    )
  )
  (foldingnet4): Fold(
    (folding1): Sequential(
      (0): Conv1d(261, 256, kernel_size=(1,), stride=(1,))
      (1): BatchNorm1d(256, eps=1e-05, momentum=0.1, affine=True, track_running_stats=True)
      (2): ReLU(inplace=True)
      (3): Conv1d(256, 128, kernel_size=(1,), stride=(1,))
      (4): BatchNorm1d(128, eps=1e-05, momentum=0.1, affine=True, track_running_stats=True)
      (5): ReLU(inplace=True)
      (6): Conv1d(128, 3, kernel_size=(1,), stride=(1,))
    )
    (folding2): Sequential(
      (0): Conv1d(262, 256, kernel_size=(1,), stride=(1,))
      (1): BatchNorm1d(256, eps=1e-05, momentum=0.1, affine=True, track_running_stats=True)
      (2): ReLU(inplace=True)
      (3): Conv1d(256, 128, kernel_size=(1,), stride=(1,))
      (4): BatchNorm1d(128, eps=1e-05, momentum=0.1, affine=True, track_running_stats=True)
      (5): ReLU(inplace=True)
      (6): Conv1d(128, 3, kernel_size=(1,), stride=(1,))
    )
  )
  (foldingnet5): Fold(
    (folding1): Sequential(
      (0): Conv1d(517, 256, kernel_size=(1,), stride=(1,))
      (1): BatchNorm1d(256, eps=1e-05, momentum=0.1, affine=True, track_running_stats=True)
      (2): ReLU(inplace=True)
      (3): Conv1d(256, 128, kernel_size=(1,), stride=(1,))
      (4): BatchNorm1d(128, eps=1e-05, momentum=0.1, affine=True, track_running_stats=True)
      (5): ReLU(inplace=True)
      (6): Conv1d(128, 3, kernel_size=(1,), stride=(1,))
    )
    (folding2): Sequential(
      (0): Conv1d(518, 256, kernel_size=(1,), stride=(1,))
      (1): BatchNorm1d(256, eps=1e-05, momentum=0.1, affine=True, track_running_stats=True)
      (2): ReLU(inplace=True)
      (3): Conv1d(256, 128, kernel_size=(1,), stride=(1,))
      (4): BatchNorm1d(128, eps=1e-05, momentum=0.1, affine=True, track_running_stats=True)
      (5): ReLU(inplace=True)
      (6): Conv1d(128, 3, kernel_size=(1,), stride=(1,))
    )
  )
  (m_foldingnet1): Fold(
    (folding1): Sequential(
      (0): Conv1d(37, 256, kernel_size=(1,), stride=(1,))
      (1): BatchNorm1d(256, eps=1e-05, momentum=0.1, affine=True, track_running_stats=True)
      (2): ReLU(inplace=True)
      (3): Conv1d(256, 128, kernel_size=(1,), stride=(1,))
      (4): BatchNorm1d(128, eps=1e-05, momentum=0.1, affine=True, track_running_stats=True)
      (5): ReLU(inplace=True)
      (6): Conv1d(128, 3, kernel_size=(1,), stride=(1,))
    )
    (folding2): Sequential(
      (0): Conv1d(38, 256, kernel_size=(1,), stride=(1,))
      (1): BatchNorm1d(256, eps=1e-05, momentum=0.1, affine=True, track_running_stats=True)
      (2): ReLU(inplace=True)
      (3): Conv1d(256, 128, kernel_size=(1,), stride=(1,))
      (4): BatchNorm1d(128, eps=1e-05, momentum=0.1, affine=True, track_running_stats=True)
      (5): ReLU(inplace=True)
      (6): Conv1d(128, 3, kernel_size=(1,), stride=(1,))
    )
  )
  (m_foldingnet2): Fold(
    (folding1): Sequential(
      (0): Conv1d(69, 256, kernel_size=(1,), stride=(1,))
      (1): BatchNorm1d(256, eps=1e-05, momentum=0.1, affine=True, track_running_stats=True)
      (2): ReLU(inplace=True)
      (3): Conv1d(256, 128, kernel_size=(1,), stride=(1,))
      (4): BatchNorm1d(128, eps=1e-05, momentum=0.1, affine=True, track_running_stats=True)
      (5): ReLU(inplace=True)
      (6): Conv1d(128, 3, kernel_size=(1,), stride=(1,))
    )
    (folding2): Sequential(
      (0): Conv1d(70, 256, kernel_size=(1,), stride=(1,))
      (1): BatchNorm1d(256, eps=1e-05, momentum=0.1, affine=True, track_running_stats=True)
      (2): ReLU(inplace=True)
      (3): Conv1d(256, 128, kernel_size=(1,), stride=(1,))
      (4): BatchNorm1d(128, eps=1e-05, momentum=0.1, affine=True, track_running_stats=True)
      (5): ReLU(inplace=True)
      (6): Conv1d(128, 3, kernel_size=(1,), stride=(1,))
    )
  )
  (m_foldingnet3): Fold(
    (folding1): Sequential(
      (0): Conv1d(133, 256, kernel_size=(1,), stride=(1,))
      (1): BatchNorm1d(256, eps=1e-05, momentum=0.1, affine=True, track_running_stats=True)
      (2): ReLU(inplace=True)
      (3): Conv1d(256, 128, kernel_size=(1,), stride=(1,))
      (4): BatchNorm1d(128, eps=1e-05, momentum=0.1, affine=True, track_running_stats=True)
      (5): ReLU(inplace=True)
      (6): Conv1d(128, 3, kernel_size=(1,), stride=(1,))
    )
    (folding2): Sequential(
      (0): Conv1d(134, 256, kernel_size=(1,), stride=(1,))
      (1): BatchNorm1d(256, eps=1e-05, momentum=0.1, affine=True, track_running_stats=True)
      (2): ReLU(inplace=True)
      (3): Conv1d(256, 128, kernel_size=(1,), stride=(1,))
      (4): BatchNorm1d(128, eps=1e-05, momentum=0.1, affine=True, track_running_stats=True)
      (5): ReLU(inplace=True)
      (6): Conv1d(128, 3, kernel_size=(1,), stride=(1,))
    )
  )
  (m_foldingnet4): Fold(
    (folding1): Sequential(
      (0): Conv1d(261, 256, kernel_size=(1,), stride=(1,))
      (1): BatchNorm1d(256, eps=1e-05, momentum=0.1, affine=True, track_running_stats=True)
      (2): ReLU(inplace=True)
      (3): Conv1d(256, 128, kernel_size=(1,), stride=(1,))
      (4): BatchNorm1d(128, eps=1e-05, momentum=0.1, affine=True, track_running_stats=True)
      (5): ReLU(inplace=True)
      (6): Conv1d(128, 3, kernel_size=(1,), stride=(1,))
    )
    (folding2): Sequential(
      (0): Conv1d(262, 256, kernel_size=(1,), stride=(1,))
      (1): BatchNorm1d(256, eps=1e-05, momentum=0.1, affine=True, track_running_stats=True)
      (2): ReLU(inplace=True)
      (3): Conv1d(256, 128, kernel_size=(1,), stride=(1,))
      (4): BatchNorm1d(128, eps=1e-05, momentum=0.1, affine=True, track_running_stats=True)
      (5): ReLU(inplace=True)
      (6): Conv1d(128, 3, kernel_size=(1,), stride=(1,))
    )
  )
  (m_foldingnet5): Fold(
    (folding1): Sequential(
      (0): Conv1d(517, 256, kernel_size=(1,), stride=(1,))
      (1): BatchNorm1d(256, eps=1e-05, momentum=0.1, affine=True, track_running_stats=True)
      (2): ReLU(inplace=True)
      (3): Conv1d(256, 128, kernel_size=(1,), stride=(1,))
      (4): BatchNorm1d(128, eps=1e-05, momentum=0.1, affine=True, track_running_stats=True)
      (5): ReLU(inplace=True)
      (6): Conv1d(128, 3, kernel_size=(1,), stride=(1,))
    )
    (folding2): Sequential(
      (0): Conv1d(518, 256, kernel_size=(1,), stride=(1,))
      (1): BatchNorm1d(256, eps=1e-05, momentum=0.1, affine=True, track_running_stats=True)
      (2): ReLU(inplace=True)
      (3): Conv1d(256, 128, kernel_size=(1,), stride=(1,))
      (4): BatchNorm1d(128, eps=1e-05, momentum=0.1, affine=True, track_running_stats=True)
      (5): ReLU(inplace=True)
      (6): Conv1d(128, 3, kernel_size=(1,), stride=(1,))
    )
  )
)
[2022-09-15 15:27:55,184 INFO train_PT-2.py line 253 1892023] train_data samples: '3060'
Jitting Chamfer 3D
Loaded JIT 3D CUDA chamfer distance
Loaded JIT 3D CUDA emd
Totally 204 samples in train set.
Loaded JIT 3D CUDA emd
Totally 204 samples in train set.
Loaded JIT 3D CUDA emd
Totally 204 samples in train set.
Loaded JIT 3D CUDA emd
Totally 204 samples in train set.
…
